scoring/scoring_logic/model/emotion_mlp_regression.pth (torch, 955651 bytes, 13 tensors)

fc1.weight f4 [512, 200]
0	0xbc0750d6	-0.008259019
1	0x3d165013	0.03669746
2	0xbdd3459d	-0.10316012
3	0xbd056a37	-0.032571997
4	0xbc87cbd2	-0.016576681
5	0xbd935f15	-0.0719587
6	0xbd318d6f	-0.043347772
7	0x3a24166f	0.00062594464
8	0x3da64612	0.081188336
9	0x3d41e8db	0.04734121
10	0xbe795053	-0.24347048
11	0x3dadc181	0.084841736
12	0xbd01da1f	-0.031702157
13	0xbec6fbce	-0.38863987
14	0x3d8d393a	0.06895681
15	0xbd8ba514	-0.068185955
16	0xbc1f4fe0	-0.0097236335
17	0xbe4f2df6	-0.20232376
18	0x3d4547a0	0.04816401
19	0xbe11b722	-0.14230016
20	0xbc7dab2c	-0.015482705
21	0x3d2dd7b9	0.042442057
22	0x3e08ada3	0.13347487
23	0xbe6016bd	-0.21883674
24	0xbcc1632d	-0.023606861
25	0xbe8e5775	-0.278011
26	0xbe9d1e65	-0.30687252
27	0xbe0a624b	-0.13514058
28	0x3dbbf49c	0.09177515
29	0x3e264bd2	0.1623986
30	0x3e191b91	0.14951922
31	0xbe98b7b1	-0.29827645
32	0x3c82747e	0.015924688
33	0xbe80042a	-0.25003177
34	0xbe7f37d3	-0.24923639
35	0xbdc90d3b	-0.09816977
36	0x3e9fd0ce	0.31213993
37	0x3e56c3cf	0.20973133
38	0x3d189ddf	0.037259933
39	0x3e28b00d	0.16473408
40	0xbe1cd937	-0.15317236
41	0x3deb01f5	0.11474983
42	0xbee1de75	-0.44115034
43	0xbdb5aeca	-0.08871229
44	0x3ea86bb9	0.32894686
45	0xbea05364	-0.31313622
46	0x3dcb37ba	0.099227384
47	0xbd80b606	-0.06284718
48	0xbe1683da	-0.14698735
49	0x3d5f85f4	0.054571107
50	0x3d01c023	0.031677376
51	0x3b7a9938	0.0038238298
52	0xbefc94bd	-0.49332228
53	0x3e7cc73f	0.24685381
54	0xbf2b7a95	-0.6698392
55	0x3e9f48f8	0.31110358
56	0xbe19589a	-0.14975205
57	0x3ec22456	0.37918347
58	0xbe363ea9	-0.1779734
59	0xbea2f8f8	-0.31830573
60	0x3e117f90	0.14208817
61	0x3d9df505	0.077127494
62	0x3ea1a5a7	0.31571695
63	0x3e1ae3e5	0.15125997
64	0x3e0ff703	0.14059071
65	0x3e77645e	0.24159381
66	0x3d954f4e	0.07290517
67	0xbe74dcce	-0.23912355
68	0x3d3b117d	0.045670975
69	0xbe013215	-0.12616761
70	0xbd20db75	-0.03927179
71	0xbde9cc0a	-0.114158705
72	0xbe616b8c	-0.22013682
73	0xbe961101	-0.29309848
74	0xbe2afebd	-0.16698737
75	0x3d7468be	0.059670202
76	0x3e8f7cdc	0.28024948
77	0x3c9f7fb0	0.019470066
78	0x3ec96e7d	0.39342108
79	0x3e0ae443	0.13563637
80	0x3d8c4201	0.06848527
81	0xbdce7b8b	-0.10082158
82	0xbdbc33bd	-0.09189556
83	0x3e8acd58	0.2710979
84	0xbdacddbc	-0.0844073
85	0x3de7583b	0.112961255
86	0x3e603a3e	0.21897218
87	0xbdc1b4fd	-0.09458349
88	0x3eadf460	0.33975506
89	0x3c0fed9f	0.008784681
90	0x3ea355ff	0.31901547
91	0xbe834f60	-0.25646496
92	0xbeb67289	-0.35634258
93	0xbe4dc255	-0.20093663
94	0xbe8b13bb	-0.2716349
95	0xbed311c5	-0.41224495
96	0xbee60ea5	-0.44933048
97	0xbdf6042a	-0.12012513
98	0xbeb7b25d	-0.35878268
99	0x3e62dcb0	0.22154498
100	0x3e8ff1bc	0.28114116
101	0x3ebcf6e9	0.36907127
102	0xbf30ee62	-0.69113743
103	0xbe7a4e38	-0.244439
104	0x3e190a8e	0.14945433
105	0xbe28ad63	-0.16472392
106	0x3f02b28d	0.51053697
107	0x3e210ef0	0.15728354
108	0x3c4c93a1	0.012486369
109	0xbf01796c	-0.505759
110	0xbe99efb8	-0.30065703
111	0xbe629a33	-0.22129135
112	0x3dddcd50	0.10830176
113	0xbeecf98c	-0.4628414
114	0xbf0584f2	-0.52155983
115	0xbc4188c8	-0.011812396
116	0xbf0d1c6e	-0.55121505
117	0xbe170c96	-0.14750895
118	0x3e2b0fa9	0.16705193
119	0xbd0800f8	-0.03320405
120	0x3e9ff988	0.31245065
121	0xbcbf59d4	-0.023358263
122	0xbeb7cf80	-0.35900497
123	0x3dcb7273	0.09933939
124	0x3dcf0db4	0.101100355
125	0x3e603801	0.21896364
126	0x3f29731c	0.6619127
127	0x3e69bb9b	0.22825472
128	0x3e2a731b	0.16645472
129	0xbf379893	-0.71717185
130	0xbce05df3	-0.027388548
131	0xbcf62d06	-0.030050766
132	0x3dcd91c5	0.10037569
133	0xbc467a50	-0.0121141225
134	0xbe939777	-0.28826496
135	0x3e78fa4e	0.24314234
136	0xbe860053	-0.26172122
137	0x3f200cdd	0.6251963
138	0xbde4c6b8	-0.11170715
139	0xbe508c23	-0.20365958
140	0xbf1057ff	-0.5638427
141	0xbcba5103	-0.022743708
142	0x3ed919db	0.4240254
143	0x3db454ff	0.08805274
144	0xbe06ddb5	-0.13170512
145	0x3e294f69	0.16534199
146	0x3ebc4d4b	0.3677772
147	0xbec1a3bb	-0.3782023
148	0xbcf3d471	-0.029764386
149	0x3f2695e3	0.6507246
150	0x3ec79bfc	0.38986194
151	0xbda4c667	-0.08045655
152	0x3f438242	0.7637063
153	0xbe035b04	-0.12827688
154	0xbf0b06e0	-0.54307365
155	0xbee24cc8	-0.44199204
156	0x3eaf072b	0.34185156
157	0xbed2bec9	-0.41161183
158	0x3ed3b68c	0.4135021
159	0xbec091c4	-0.3761121
160	0xbca44e52	-0.020056877
161	0xbee17b6e	-0.44039482
162	0xbde42734	-0.1114029
163	0xbe7f658a	-0.24941078
164	0xbe00ec6f	-0.12590192
165	0xbe974b36	-0.2954957
166	0x3f09db09	0.53849846
167	0x3eca18ac	0.39471948
168	0xbe6c842e	-0.23097298
169	0x3e37857e	0.17922017
170	0xbda2e9e7	-0.079547696
171	0x3ecea847	0.4036276
172	0xbf324f84	-0.6965258
173	0xbea9a8d5	-0.3313662
174	0xbe36d45a	-0.17854443
175	0x3f112123	0.5669119
176	0x3eb49d70	0.35276365
177	0xbe737058	-0.23773324
178	0x3eef3535	0.4672028
179	0xbe8d68cb	-0.27619013
180	0xbf1455e2	-0.57943547
181	0xbec95976	-0.39326066
182	0x3d788676	0.060675107
183	0xbf58f786	-0.8475269
184	0x3e0ce402	0.13758853
185	0x3df12c4b	0.11776026
186	0xbe1680aa	-0.14697519
187	0xbe0e9b34	-0.13926393
188	0xbea3c6b4	-0.31987536
189	0xbed3d2be	-0.4137172
190	0xbe62c474	-0.22145253
191	0xbe09bad8	-0.13450181
192	0x3f2e3cab	0.6806132
193	0xbe86c5c1	-0.2632275
194	0x3f306c4e	0.6891526
195	0x3e69a4e6	0.2281681
196	0x3d804257	0.06262653
197	0x3b76f85f	0.0037684662
198	0x3ea1f563	0.31632528
199	0x3f5f0f77	0.8713297
200	0x3c9285fb	0.017886152
201	0xbdec7847	-0.115463786
202	0xbdc94a72	-0.098286524
203	0x3c8c169f	0.01710063
204	0x3cedca79	0.02902721
205	0xbdac0740	-0.0839982
206	0xbe10aca4	-0.14128357
207	0xbd6cc1d1	-0.057802025
208	0xbc8c1e90	-0.017104417
209	0xbd9b9447	-0.07596641
210	0xbbada7d4	-0.0052995477
211	0x3e45e391	0.19325091
212	0x3d553ac3	0.052057993
213	0xbe8b5e53	-0.272204
214	0x3d9c9b61	0.07646824
215	0xbe6cf3ef	-0.23139928
216	0x3ceb0954	0.028690971
217	0xbdf3b0fe	-0.11898993
218	0x3e10cb46	0.14140043
219	0xbee6b3d4	-0.45059073
220	0x3d364eba	0.044508673
221	0x3e4b917b	0.19879715
222	0xbd813760	-0.0630939
223	0xbdbf7611	-0.09348691
224	0x3e0f129f	0.13971947
225	0xbded2d8a	-0.115809515
226	0xbddec856	-0.10878055
227	0xbe34d737	-0.17660223
228	0xbc2a67be	-0.010400711
229	0xbdaa2588	-0.0830794
230	0x3d25b413	0.040454935
231	0x3dc66e8a	0.096890524
232	0xbdd494e1	-0.10379959
233	0x3ceee829	0.029163437
234	0xbd9afeec	-0.07568154
235	0x3e18422a	0.1486899
236	0x3d9a7bdf	0.07543158
237	0xbe54ffec	-0.20800751
238	0xbec008f6	-0.37506837
239	0x3e6002d3	0.21876077
240	0x3d931832	0.07182349
241	0xbe16db91	-0.14732195
242	0x3e8cef06	0.2752611
243	0xbcfafb6b	-0.030637464
244	0x3c887ee2	0.016662065
245	0x3d982b1f	0.074301
246	0xbeb73740	-0.3578434
247	0x3d86ed42	0.06588222
248	0xbe5a779f	-0.21334694
249	0xbe0e73d8	-0.13911378
250	0x3e4767b4	0.19473153
251	0xbeeb0bb7	-0.45907375
252	0xbc328dce	-0.010898067
253	0x3c1c4434	0.009537745
254	0xbe29446b	-0.16530006
255	0xbbb7b735	-0.005606557

fc1.bias f4 [512]
0	0xbd48a7a6	-0.048988007
1	0x3d1317c5	0.03591134
2	0x3c329530	0.010899827
3	0x3cf5c98d	0.030003333
4	0x3d31ea67	0.043436434
5	0x3c192b36	0.009348681
6	0xbc121a16	-0.008917352
7	0xbd56eb16	-0.05247029
8	0xbd15a16c	-0.036530897
9	0x3a8148e6	0.0009863644
10	0xbc8252d6	-0.01590864
11	0xbbd1e978	-0.0064060055
12	0x3d6184c0	0.05505824
13	0x3b23ea63	0.0025011532
14	0xbd874d06	-0.06606488
15	0xbd9257b2	-0.07145633
16	0x3c99d6c5	0.018779168
17	0x3d6bceb7	0.057570186
18	0xbd3bb074	-0.045822576
19	0x3d8501d5	0.0649449
20	0xbd588e46	-0.052870058
21	0x3c210785	0.009828453
22	0x3d721691	0.059103552
23	0x3d293a5e	0.04131543
24	0x3c8be0b7	0.017074926
25	0xbd665213	-0.056230616
26	0xba6afa3d	-0.000896368
27	0xbc4dc1d5	-0.01255842
28	0x3d84ff9a	0.06494065
29	0x3ca1537f	0.019693134
30	0xbd00faba	-0.03148911
31	0xbca7b00f	-0.020469693
32	0xbd511168	-0.05104199
33	0x3d193ccf	0.037411507
34	0x3d2ffca2	0.04296554
35	0x3d26919f	0.04066622
36	0x3d08d3e7	0.03340521
37	0x3d8ed769	0.0697468
38	0xbd4abd8a	-0.049497165
39	0x3ca29a23	0.019848889
40	0x3d40fcf5	0.04711624
41	0xbce3a2b0	-0.027787536
42	0xbd118de1	-0.035535697
43	0x3d79f929	0.061028633
44	0xbd390542	-0.04517103
45	0x3d916799	0.07099838
46	0xbd045641	-0.03230882
47	0xbb1c993e	-0.002389505
48	0xbcf2fef0	-0.02966258
49	0x3d8083f3	0.06275167
50	0xbd693c4a	-0.05694226
51	0x3d8971a6	0.0671113
52	0x3d6b5ded	0.05746262
53	0x3cf8825e	0.030335601
54	0x3d271e31	0.040800277
55	0x3d72ebd9	0.059306953
56	0x3d0885ac	0.033330604
57	0xbcf9b837	-0.030483348
58	0x3d4327c9	0.047645364
59	0xbc39d3e1	-0.01134202
60	0x3d17d994	0.037072733
61	0xbc51806a	-0.012786964
62	0x3868605e	5.540286e-05
63	0xbcd903dd	-0.0264911
64	0xbc1ee712	-0.009698646
65	0xbd8a33d9	-0.067481704
66	0x3d5c9d87	0.053861167
67	0x3c2a3ad0	0.010389999
68	0xbd861b3a	-0.06548162
69	0x3d391ac1	0.04519153
70	0x3d1c44c0	0.038151503
71	0xbc069d57	-0.008216224
72	0xbc267276	-0.010159126
73	0xbd776542	-0.0603993
74	0xbb0fe435	-0.002195609
75	0x3d7843d6	0.06061157
76	0xbc1c1fda	-0.009529078
77	0xbce58d96	-0.028021615
78	0xbcf17ac8	-0.029477492
79	0xbd81d53d	-0.063395
80	0xbd20cab5	-0.039255816
81	0x3d3c225a	0.045931198
82	0xbd83e904	-0.064409286
83	0xbd605ddd	-0.054777015
84	0x3cf63c1f	0.030057965
85	0xbce649ea	-0.028111417
86	0x3cc07d09	0.023497121
87	0x3d830013	0.063964985
88	0xbc34064b	-0.0109878285
89	0xbba375ad	-0.0049883933
90	0xbbf55d8f	-0.0074879597
91	0xbd8b6030	-0.06805456
92	0x3c006653	0.007836896
93	0x3d2fc3eb	0.04291145
94	0x3bc02a9c	0.0058644544
95	0xbd6941db	-0.05694757
96	0xbd5c2b73	-0.053752374
97	0xbd29f8d1	-0.041497055
98	0x3d550e92	0.05201585
99	0x3c69efc2	0.014278354
100	0x3bee07c4	0.0072641093
101	0x3c872354	0.016496338
102	0x3d0c50a1	0.03425658
103	0xbc05b9c6	-0.008161968
104	0xbc0e8524	-0.008698735
105	0x3cdb4160	0.026764572
106	0xbb73881d	-0.0037159987
107	0x3c49e9dc	0.012323823
108	0x3ce68419	0.028139161
109	0xbd25e4be	-0.04050135
110	0x3ccc007b	0.024902573
111	0x3c86e422	0.016466204
112	0xbd306029	-0.043060455
113	0x3d095b53	0.03353436
114	0x3d3eb1e9	0.046556387
115	0x3bcb6df6	0.0062081767
116	0xbd1a31ba	-0.03764508
117	0x3d8aa361	0.06769443
118	0x3c74ffc7	0.01495356
119	0x3d574e2f	0.052564796
120	0xbcf99ddc	-0.030470781
121	0xbd78c9b9	-0.060739253
122	0x3ce217d7	0.027599258
123	0xbd26a82c	-0.040687725
124	0x3cc1fab0	0.023679107
125	0xbb1323b0	-0.0022451691
126	0x3cac3757	0.021022482
127	0x3d84215e	0.06451677
128	0xbd4910e8	-0.04908839
129	0x3c4b41cf	0.012405827
130	0x3d3d8801	0.04627228
131	0xbbf79e4b	-0.007556712
132	0xbd192df8	-0.037397355
133	0x3d3daf26	0.046309613
134	0xbd531af1	-0.051539365
135	0xbd0a35c2	-0.033742674
136	0x3d7a1d41	0.061063055
137	0xbd24d553	-0.040242504
138	0x3cf492fb	0.029855242
139	0x3bb8f9a4	0.005644994
140	0xbd8d338e	-0.06894599
141	0xbd15e102	-0.036591537
142	0x3d0c3ebc	0.034239516
143	0x3cd83602	0.02639294
144	0xbd329d55	-0.043607075
145	0xbc933c7f	-0.017973183
146	0xbd075c5d	-0.03304707
147	0xbd5ac689	-0.053411994
148	0xbc92fb27	-0.017942024
149	0x3d36125e	0.04445111
150	0xbccdbbae	-0.025113907
151	0xbcc96f39	-0.024589168
152	0x3d3f2e06	0.04667475
153	0x3c3c653d	0.011498746
154	0xbc27379e	-0.010206131
155	0x3d82cd77	0.063868456
156	0xbd4fef8b	-0.050765555
157	0xbd1b1eb7	-0.03787109
158	0xbd661bd8	-0.056178898
159	0xbbe37e97	-0.006942581
160	0xbca3febb	-0.020018926
161	0x3d3ed6d1	0.046591584
162	0x3d8f6d50	0.070032716
163	0x3c93041e	0.0179463
164	0x3b026a92	0.0019899947
165	0xbd80bee4	-0.062864095
166	0xbcb9770b	-0.022639772
167	0x3b3828a0	0.0028100386
168	0xbd1f9926	-0.038964413
169	0xbcb926b5	-0.022601465
170	0xbd7c1b43	-0.061549436
171	0xbd5925eb	-0.053014677
172	0xbd7bfecc	-0.06152229
173	0xbc8e945b	-0.017404726
174	0x3d54ee7f	0.05198526
175	0xbd03f317	-0.03221425
176	0x3d7721eb	0.06033508
177	0xbc3dfaf5	-0.011595477
178	0x3c106ffd	0.008815763
179	0xbd552a97	-0.05204257
180	0xbd6e7c50	-0.058224022
181	0x3c2f4d88	0.010699637
182	0xbcf5716a	-0.029961307
183	0xbce921b9	-0.028458463
184	0x3cbc855e	0.023012813
185	0xbd673838	-0.0564501
186	0x3d59f71e	0.053214185
187	0xbd019382	-0.031634815
188	0xbcf2b6d4	-0.029628195
189	0xbccbc071	-0.024872037
190	0xbd9020a2	-0.07037474
191	0x3d782f82	0.060592182
192	0x3b3785d2	0.0028003347
193	0xbd500850	-0.050789177
194	0xbc6e63ec	-0.01455019
195	0xbd6c1573	-0.057637643
196	0xbcbd77e8	-0.023128465
197	0xbc930bda	-0.017949987
198	0xbca4abfe	-0.020101544
199	0xbcb52a99	-0.022115039
200	0xbd7d4d6f	-0.061841425
201	0x3d4210d1	0.04737932
202	0x3c15406c	0.009109598
203	0xbd7d5abd	-0.061854113
204	0x3d85ccaa	0.06533177
205	0xbd0f630b	-0.035006564
206	0xbd3533ec	-0.04423897
207	0xbd81ba0e	-0.06334315
208	0x3d6723d7	0.056430664
209	0xbd47bae3	-0.048762213
210	0xbb47094f	-0.0030370539
211	0xbc1fe9d3	-0.009760338
212	0x3d32e4a3	0.043675076
213	0x3d82735c	0.06369659
214	0xbd62ee8b	-0.055403274
215	0xbcdaabe9	-0.026693301
216	0xbd82e0c9	-0.063905306
217	0x3ceac108	0.028656498
218	0x3d6a7a0b	0.057245295
219	0xbd5472e9	-0.0518674
220	0x3c6cf3f3	0.014462459
221	0xbc943a9e	-0.018094357
222	0xbd656a3c	-0.056009516
223	0x3d32a6f4	0.04361625
224	0xbcc5b85f	-0.024135767
225	0xbca23176	-0.019798975
226	0xbca0aac5	-0.01961268
227	0xbd5c3bb1	-0.053767864
228	0x3bedc096	0.007255624
229	0xbc903965	-0.017605493
230	0xbd15099e	-0.036386125
231	0x3bbab610	0.005697973
232	0x3d397c9d	0.045284856
233	0xbcfe0fdc	-0.031013422
234	0xbb94642c	-0.004528543
235	0x3cd8bc25	0.026456902
236	0x3d1b8052	0.037964173
237	0xbd038d6f	-0.032117303
238	0x3d6ac93a	0.05732081
239	0xbbc96708	-0.0061463155
240	0x3c9cd97e	0.019146677
241	0x3c5d9eb2	0.013526605
242	0x3d891026	0.06692533
243	0x3c47f0da	0.01220342
244	0xbdbe369e	-0.09287761
245	0x3d80130e	0.062536344
246	0xbc86cb46	-0.01645435
247	0xbd1b6f4a	-0.03794793
248	0x3d8fc553	0.070200585
249	0x3c1a5023	0.00941852
250	0x3d56e232	0.05246181
251	0x3d899de4	0.06719568
252	0xbbf99b45	-0.0076173865
253	0xbcb3a290	-0.021928102
254	0x3d0677ce	0.0328291
255	0x3d0fc7d7	0.03510269

bn1.weight f4 [512]
0	0x3f44190e	0.7660073
1	0x3f3473b8	0.7048907
2	0x3f72946e	0.94757736
3	0x3f356abe	0.70866
4	0x3f8f9ec2	1.1220324
5	0x3ee23440	0.4418049
6	0x3f6865c2	0.9078027
7	0x3f625bfb	0.884216
8	0x3f0c3d38	0.5478091
9	0x3fb56322	1.4170878
10	0x3f122fda	0.57104266
11	0x3f6aa7b5	0.9166215
12	0x3f1ad69e	0.6048373
13	0x3f189927	0.5960869
14	0x3f35200c	0.70752025
15	0x3f2e97b8	0.68200254
16	0x3f138df7	0.57638496
17	0x3ee9d719	0.4567192
18	0x3f1ed824	0.62048554
19	0x3f071c1d	0.5277727
20	0x3f24df72	0.6440345
21	0x3f425069	0.75903946
22	0x3f42373f	0.7586555
23	0x3ef808d1	0.48444226
24	0x3f48dea4	0.7846472
25	0x3f416911	0.75550944
26	0x3f2e641c	0.68121505
27	0x3eff9dd1	0.49925092
28	0x3f2de79e	0.67931545
29	0x3f5dee58	0.8669181
30	0x3f73df0b	0.9526221
31	0x3f2afe25	0.66794044
32	0x3ec7c6c6	0.3901884
33	0x3f0d94eb	0.55305356
34	0x3eeb5a6b	0.4596742
35	0x3f001fdd	0.5004862
36	0x3f697c6f	0.91205496
37	0x3f77a741	0.96739584
38	0x3f858cf6	1.0433643
39	0x3f17cb89	0.59294945
40	0x3f243d35	0.64155895
41	0x3f3a599b	0.7279298
42	0x3f0d8503	0.55281085
43	0x3f332bdd	0.69988805
44	0x3f812f2e	1.0092523
45	0x3f8bc8c6	1.0920646
46	0x3f8d58f7	1.1042775
47	0x3f10a5d0	0.5650301
48	0x3f742dbd	0.9538229
49	0x3f3b0c6c	0.7306583
50	0x3f20f910	0.6288004
51	0x3f802e1e	1.0014074
52	0x3f2c2780	0.6724777
53	0x3f1504c2	0.58210385
54	0x3f02a87d	0.5103834
55	0x3ed5b094	0.4173628
56	0x3f33606e	0.70069015
57	0x3f0ea36e	0.55718124
58	0x3eb708cd	0.35748902
59	0x3f34dbfc	0.7064817
60	0x3f38c826	0.721804
61	0x3edf78fc	0.4364699
62	0x3f64e102	0.89405835
63	0x3f3edeaf	0.7455854
64	0x3f073a59	0.52823406
65	0x3ef1580f	0.47137496
66	0x3faac5e4	1.3341641
67	0x3f12e744	0.57384133
68	0x3ec9552c	0.39322793
69	0x3f57ec6a	0.84345114
70	0x3f786fae	0.9704541
71	0x3f542204	0.82864404
72	0x3f81badf	1.0135154
73	0x3f293d7b	0.66109437
74	0x3f5c35da	0.8601967
75	0x3f4812b2	0.78153527
76	0x3f70a34b	0.93999165
77	0x3f23b1d3	0.63943213
78	0x3f86fde7	1.0546235
79	0x3f52345d	0.8211115
80	0x3f0de531	0.55427843
81	0x3f7ed0ae	0.9953717
82	0x3f299c6f	0.66254324
83	0x3ef77f8d	0.483395
84	0x3f41e8c9	0.75745827
85	0x3f27ec31	0.65594774
86	0x3f8073fa	1.0035393
87	0x3f7ce088	0.9878011
88	0x3f60f521	0.8787404
89	0x3f049530	0.5179014
90	0x3f2d6990	0.677392
91	0x3f3d6299	0.73978573
92	0x3f778d5f	0.9670009
93	0x3f032613	0.5122997
94	0x3f23f364	0.6404326
95	0x3f65ae3e	0.89719
96	0x3f1b6b91	0.6071101
97	0x3f72cf28	0.94847345
98	0x3f4ac53b	0.792072
99	0x3f15a9c6	0.5846218
100	0x3f5a8f10	0.85374546
101	0x3f5fc654	0.87412
102	0x3f506279	0.8140026
103	0x3f683100	0.9069977
104	0x3f291819	0.66052395
105	0x3f67d197	0.90554184
106	0x3f5479fd	0.8299864
107	0x3f2e7c0b	0.68158025
108	0x3f7ebc67	0.9950623
109	0x3f479404	0.7796023
110	0x3f1ad459	0.60480267
111	0x3f693772	0.9110023
112	0x3f62ade5	0.8854659
113	0x3f2378fc	0.6385648
114	0x3f28d23f	0.6594581
115	0x3f315f8f	0.69286436
116	0x3f85bc91	1.0448171
117	0x3f4caa18	0.7994704
118	0x3f241608	0.64096117
119	0x3f5ed383	0.8704149
120	0x3f23fef2	0.6406089
121	0x3f876a38	1.057929
122	0x3f1e55d4	0.61849713
123	0x3f9288d6	1.1448009
124	0x3f27c755	0.6553853
125	0x3f3493fd	0.7053831
126	0x3f45870f	0.7715921
127	0x3f691cb0	0.910594
128	0x3f901b07	1.1258248
129	0x3f7a8bbf	0.97869486
130	0x3f581cdb	0.8441903
131	0x3f8dd55d	1.1080738
132	0x3f3570d6	0.708753
133	0x3f607fd6	0.8769506
134	0x3f06b303	0.526169
135	0x3f439568	0.7639985
136	0x3f87fa0d	1.0623184
137	0x3f740bd4	0.9533055
138	0x3ec797d0	0.3898301
139	0x3fa9e88f	1.3274096
140	0x3f1a5172	0.60280526
141	0x3f9c6297	1.2217587
142	0x3f6a7471	0.91583925
143	0x3f01fdcb	0.5077788
144	0x3f694c49	0.91132027
145	0x3f03c0a5	0.5146583
146	0x3f2c4cd6	0.6730474
147	0x3f832c5f	1.0247916
148	0x3f4b2b40	0.7936287
149	0x3f508ad1	0.8146182
150	0x3f0067aa	0.5015818
151	0x3f2b1562	0.668295
152	0x3f0d30f9	0.5515285
153	0x3f1fca2e	0.62417877
154	0x3f3ec635	0.7452119
155	0x3fcb262f	1.5871028
156	0x3f00f777	0.503776
157	0x3edfefcd	0.4373764
158	0x3f0f2e79	0.55930287
159	0x3f44daf9	0.76896626
160	0x3f19676f	0.5992345
161	0x3ea1c6fc	0.31597126
162	0x3f77b32a	0.9675776
163	0x3f180b75	0.5939248
164	0x3f2ac77f	0.66710657
165	0x3f60f690	0.87876225
166	0x3eef972d	0.46795025
167	0x3f6d65de	0.9273356
168	0x3f7fc395	0.9990781
169	0x3f64cf44	0.8937876
170	0x3f5e56e9	0.86851364
171	0x3f5a6ec6	0.85325277
172	0x3f45d349	0.7727552
173	0x3eeeb765	0.46624294
174	0x3f484339	0.78227574
175	0x3f6468a6	0.8922218
176	0x3f08148d	0.5315636
177	0x3f08f285	0.53495055
178	0x3f21ad84	0.6315539
179	0x3f22cd3e	0.63594425
180	0x3f48c788	0.7842946
181	0x3edf7277	0.43642017
182	0x3f912021	1.133793
183	0x3f567837	0.83777183
184	0x3f117ce6	0.56831205
185	0x3f09828d	0.5371483
186	0x3ee2cb19	0.44295576
187	0x3f80d4cd	1.0064942
188	0x3fa56950	1.2922764
189	0x3f2f3aaf	0.6844892
190	0x3f310f90	0.6916437
191	0x3f2e7da9	0.6816049
192	0x3f98e721	1.1945535
193	0x3f81b25b	1.0132555
194	0x3f2031ab	0.6257579
195	0x3f17a4d2	0.5923587
196	0x3ed017bc	0.40643108
197	0x3f3207fa	0.6954342
198	0x3ef3d365	0.4762222
199	0x3ee85300	0.45375824
200	0x3f2625a5	0.6490119
201	0x3f0dd6de	0.55405986
202	0x3f03ff95	0.5156186
203	0x3f548a3a	0.83023417
204	0x3eeeda50	0.46650934
205	0x3f90b257	1.1304425
206	0x3f5d9180	0.8655014
207	0x3f288450	0.6582689
208	0x3f314304	0.6924288
209	0x3f75d3dc	0.96026397
210	0x3f6a1356	0.91435754
211	0x3fa16cad	1.261129
212	0x3f103231	0.56326586
213	0x3f22bf80	0.63573456
214	0x3fa0bb9a	1.2557251
215	0x3f208123	0.62697047
216	0x3f2d942f	0.67804235
217	0x3f15958c	0.58431315
218	0x3f9f19e1	1.2429773
219	0x3f589559	0.84602886
220	0x3f549687	0.83042186
221	0x3ef1ab75	0.47201124
222	0x3f0163fc	0.5054319
223	0x3f220fb1	0.63305193
224	0x3f816706	1.0109565
225	0x3effcd84	0.49961483
226	0x3f405f86	0.7514576
227	0x3f1fe9f2	0.6246635
228	0x3f1e939a	0.6194397
229	0x3ee44a0e	0.4458775
230	0x3f919211	1.1372701
231	0x3fbaccf3	1.4593796
232	0x3f25f9d0	0.6483431
233	0x3f140ce8	0.57832193
234	0x3fa00991	1.250292
235	0x3fa97994	1.3240228
236	0x3f5ae1c0	0.8550072
237	0x3f5ed16c	0.870383
238	0x3f1118c2	0.566784
239	0x3eeba452	0.46023804
240	0x3f89e4aa	1.0772908
241	0x3f291dfb	0.6606137
242	0x3f258ab8	0.64664793
243	0x3f716311	0.9429179
244	0x3fdb2d4a	1.7123196
245	0x3f473e89	0.77829796
246	0x3f1bb170	0.60817623
247	0x3edc7373	0.4305683
248	0x3eccfebc	0.40038097
249	0x3fb3a080	1.4033356
250	0x3fb48fd3	1.4106392
251	0x3f2efdaf	0.6835584
252	0x3f27f065	0.6560119
253	0x3fc2b2c5	1.5210806
254	0x3f05117b	0.519798
255	0x3f0e91b6	0.5569109

bn1.bias f4 [512]
0	0xbe9b9577	-0.3038747
1	0xbef9aa3b	-0.48762688
2	0xbe8bc747	-0.27300474
3	0xbeda0bb1	-0.42587045
4	0xbef27863	-0.47357473
5	0xbef23291	-0.47304204
6	0xbebc79d1	-0.3681169
7	0xbe99ad39	-0.3001497
8	0xbecf8a13	-0.4053503
9	0xbf0ebf99	-0.55761105
10	0xbea8c585	-0.32963195
11	0xbedc9f43	-0.43090257
12	0xbea96a68	-0.33088994
13	0xbea3c817	-0.31988594
14	0xbddfd21d	-0.10928748
15	0xbee844c8	-0.45364976
16	0xbe841eac	-0.2580465
17	0xbecb5ecc	-0.39720762
18	0xbe86a4ad	-0.26297513
19	0xbee463d2	-0.44607407
20	0xbedde64c	-0.43339765
21	0xbf00ddc6	-0.503384
22	0xbede9499	-0.43472746
23	0xbedfe164	-0.43726647
24	0xbec80c8e	-0.39072078
25	0xbecae296	-0.39625996
26	0xbebe5d29	-0.3718045
27	0xbf151cc5	-0.58247024
28	0xbed2052e	-0.41019577
29	0xbef88ef7	-0.48546574
30	0xbef54c31	-0.47909692
31	0xbec6bcd5	-0.38815942
32	0xbef3a45a	-0.47586328
33	0xbed423f5	-0.41433683
34	0xbeb43d5f	-0.35203072
35	0xbeda215f	-0.42603585
36	0xbe543bb4	-0.207259
37	0xbecd48de	-0.40094656
38	0xbece15e9	-0.4025109
39	0xbed936fc	-0.42424762
40	0xbed9f0f3	-0.42566642
41	0xbea217e5	-0.31658855
42	0xbebda4bd	-0.37039748
43	0xbee9c504	-0.45658123
44	0xbef84e76	-0.4849736
45	0xbe9ff969	-0.31244972
46	0xbf03c597	-0.51473373
47	0xbec033fa	-0.37539655
48	0xbf0fc9de	-0.561674
49	0xbea3bcab	-0.3197988
50	0xbea6052e	-0.32425827
51	0xbe9145e4	-0.28373635
52	0xbedbb9e0	-0.4291525
53	0xbe9071b0	-0.28211737
54	0xbef036e1	-0.4691687
55	0xbeb7c372	-0.358913
56	0xbefe6c04	-0.49691784
57	0xbf226a0c	-0.63443065
58	0xbed273da	-0.41104013
59	0xbe9d49f7	-0.30720493
60	0xbec89b21	-0.39180854
61	0xbf0e14f3	-0.55500716
62	0xbea654c2	-0.3248654
63	0xbe9baab1	-0.30403665
64	0xbe8592fa	-0.26088697
65	0xbf02a3e0	-0.51031303
66	0xbef5449d	-0.4790391
67	0xbe8d8caa	-0.2764638
68	0xbed35a4d	-0.41279832
69	0xbe4843ff	-0.19557188
70	0xbe4e02aa	-0.20118204
71	0xbeba0c4b	-0.36337504
72	0xbe7e2b96	-0.24821314
73	0xbed10fca	-0.4083236
74	0xbe9c0d24	-0.30478776
75	0xbebf9ed7	-0.37425873
76	0xbe83c08a	-0.25732833
77	0xbe1d2a90	-0.15348268
78	0xbe471631	-0.19442059
79	0xbe4f496f	-0.20242856
80	0xbea7eb85	-0.32796875
81	0xbee3acbf	-0.44467732
82	0xbebb4517	-0.3657615
83	0xbf11a98e	-0.56899345
84	0xbe75d98c	-0.24008769
85	0xbee16638	-0.440233
86	0xbec10060	-0.376956
87	0xbed0cea3	-0.4078265
88	0xbe86cdd8	-0.2632892
89	0xbf040f2d	-0.51585656
90	0xbee18c42	-0.4405232
91	0xbe82ec95	-0.25571123
92	0xbe9e180d	-0.30877724
93	0xbe8c6299	-0.27418974
94	0xbea43521	-0.32071784
95	0xbebbdd2d	-0.3669218
96	0xbedf45e0	-0.43607998
97	0xbedc42f4	-0.4301983
98	0xbed552e0	-0.4166479
99	0xbeb9ae25	-0.36265674
100	0xbe3613e1	-0.1778102
101	0xbefc55f5	-0.4928433
102	0xbe92033c	-0.28518093
103	0xbee0a291	-0.43874028
104	0xbf02f694	-0.511575
105	0xbec92a3a	-0.3929003
106	0xbf0dd6a0	-0.55405617
107	0xbeebae84	-0.46031582
108	0xbeb8fbef	-0.3612971
109	0xbe653065	-0.22381742
110	0xbeb6ecd3	-0.35727558
111	0xbea71d55	-0.32639566
112	0xbec3c7cf	-0.3823838
113	0xbddfb027	-0.1092227
114	0xbe99b9ff	-0.30024716
115	0xbebbe3b9	-0.36697176
116	0xbf00fd78	-0.5038676
117	0xbecd948c	-0.40152395
118	0xbef90c6a	-0.48642284
119	0xbea7a50e	-0.32743114
120	0xbf016c9e	-0.5055636
121	0xbec2986a	-0.38006908
122	0xbeb8647a	-0.36014158
123	0xbefaf947	-0.4901831
124	0xbee5d611	-0.44889882
125	0xbeacb614	-0.33732665
126	0xbec6026f	-0.38673732
127	0xbee732a6	-0.4515583
128	0xbef8cbbf	-0.48592946
129	0xbe110977	-0.14163767
130	0xbec2caa0	-0.38045216
131	0xbe8e971f	-0.2784967
132	0xbed99b8c	-0.42501485
133	0xbead64f7	-0.33866093
134	0xbe82b0c5	-0.2552549
135	0xbecd84fb	-0.4014052
136	0xbf01424c	-0.50491786
137	0xbed91d11	-0.42404988
138	0xbecf2d25	-0.4046413
139	0xbead0b2c	-0.33797586
140	0xbeb5b906	-0.35492724
141	0xbeabffa1	-0.33593467
142	0xbf14982c	-0.58044696
143	0xbef418c2	-0.4767514
144	0xbeca65a2	-0.39530665
145	0xbe1c0955	-0.15237935
146	0xbee9dd5b	-0.45676693
147	0xbe8169a2	-0.25275904
148	0x3c3a5be9	0.011374452
149	0xbeb84ce4	-0.35996163
150	0xbecb910a	-0.39759094
151	0xbef9abe8	-0.48763967
152	0xbef628f6	-0.48078126
153	0xbea983b6	-0.331083
154	0xbeba3b92	-0.36373574
155	0xbeb003d4	-0.3437792
156	0xbf143a7a	-0.5790173
157	0xbeca2cec	-0.39487398
158	0xbea411ef	-0.32044932
159	0xbed9d900	-0.4254837
160	0xbf0c01ed	-0.5469044
161	0xbf0fa061	-0.56104094
162	0xbefd9abb	-0.49532112
163	0xbe85419d	-0.2602662
164	0xbe938e01	-0.28819278
165	0xbec5f4bc	-0.3866328
166	0xbeea2181	-0.45728686
167	0xbece3248	-0.40272737
168	0xbeed11ba	-0.46302587
169	0xbeb3dd1f	-0.3512964
170	0xbec35fe7	-0.38159105
171	0xbeb3b140	-0.3509617
172	0xbe4b6fd8	-0.19866884
173	0xbea803ad	-0.32815304
174	0xbeba8192	-0.3642698
175	0xbeb8e630	-0.3611312
176	0xbea74f09	-0.32677487
177	0xbf00c31b	-0.5029771
178	0xbeb385dd	-0.35063067
179	0xbe8631ea	-0.26209956
180	0xbe518358	-0.2046026
181	0xbec2a82f	-0.3801894
182	0xbf1f6760	-0.6226711
183	0xbf09b542	-0.537922
184	0xbed20c2d	-0.41024914
185	0xbe55225c	-0.20813888
186	0xbefa7e4e	-0.48924488
187	0xbec3e1c7	-0.38258192
188	0xbf12965d	-0.57260686
189	0xbe2e62c2	-0.1702986
190	0xbe96692c	-0.29377115
191	0xbf00785d	-0.5018366
192	0xbe987abf	-0.29781148
193	0xbe92bbd1	-0.28658918
194	0xbe3e5246	-0.18586072
195	0xbed0a86d	-0.407535
196	0xbef96a4b	-0.48713908
197	0xbf05a442	-0.5220376
198	0xbe4260d7	-0.18982254
199	0xbee4a2e1	-0.44655517
200	0xbeb4e5d8	-0.35331607
201	0xbed33ff2	-0.41259724
202	0xbf054cf3	-0.5207054
203	0xbe917e35	-0.284166
204	0xbee1a1f2	-0.44068867
205	0xbec6c347	-0.3882086
206	0xbe893ab2	-0.26802593
207	0xbed44de7	-0.41465685
208	0xbe84c89f	-0.25934312
209	0xbeb98731	-0.36235955
210	0xbd024a2f	-0.03180903
211	0xbeb490d1	-0.35266736
212	0xbe8b993c	-0.27265346
213	0xbf163e31	-0.58688647
214	0xbe5af969	-0.21384205
215	0xbeb2dcf2	-0.34934193
216	0xbea274cd	-0.31729737
217	0xbe158ae4	-0.14603764
218	0xbe9b1bf2	-0.30294758
219	0xbede7f0e	-0.4345631
220	0xbf06ce5b	-0.52658623
221	0xbee35d83	-0.4440728
222	0xbebc6990	-0.36799288
223	0xbe5ce216	-0.2157062
224	0xbec0f830	-0.37689352
225	0xbf0b717b	-0.5447003
226	0xbec80ae9	-0.39070824
227	0xbead2538	-0.33817458
228	0xbec07a50	-0.37593317
229	0xbee1ca44	-0.4409963
230	0xbecc7297	-0.39931175
231	0xbed073b0	-0.40713263
232	0xbed417a3	-0.41424283
233	0xbef2321c	-0.47303855
234	0xbf08090d	-0.5313881
235	0xbf00326e	-0.5007695
236	0xbeac2bd0	-0.33627176
237	0xbee38d3a	-0.44443685
238	0xbed34c99	-0.41269377
239	0xbecf47ae	-0.40484375
240	0xbefca1b7	-0.4934213
241	0xbeaa99a8	-0.33320355
242	0xbedd443a	-0.43216115
243	0xbea10b3a	-0.31453878
244	0xbf26caea	-0.6515337
245	0xbed8bae4	-0.42330086
246	0xbe8fd737	-0.28093883
247	0xbed6ff6d	-0.4199175
248	0xbec8a0d8	-0.39185214
249	0xbee07d49	-0.43845585
250	0xbeef84a8	-0.46780896
251	0xbe7e031e	-0.24805877
252	0xbeda947b	-0.42691407
253	0xbeb76c61	-0.35824874
254	0xbe575a9d	-0.2103066
255	0xbefd9c3f	-0.4953327

bn1.running_mean f4 [512]
0	0xbd383774	-0.04497476
1	0x3ce91ca6	0.028456043
2	0x3c8f23ed	0.017473185
3	0x3ce852b4	0.028359748
4	0x3d3ec48f	0.04657417
5	0x3c098ff5	0.008396138
6	0xbc2de2c3	-0.010613146
7	0xbd5037ed	-0.050834585
8	0xbcb3a1e6	-0.021927785
9	0x3a9d5eab	0.0012006363
10	0xbadb7098	-0.001674193
11	0xbc0a5343	-0.008442703
12	0x3d5ca642	0.053869493
13	0xbaeaa26c	-0.0017901189
14	0xbd6b887e	-0.057503216
15	0xbd917e34	-0.071041495
16	0x3c525903	0.012838605
17	0x3d51a631	0.051183883
18	0xbd3d8d2e	-0.046277218
19	0x3d8c1f27	0.06841879
20	0xbd8d4d52	-0.06899513
21	0x3c289c04	0.010291103
22	0x3d68039b	0.056644063
23	0x3d2e0ed7	0.04249462
24	0x3ccf8113	0.025330102
25	0xbd52b52b	-0.051442306
26	0x3c1aa3d1	0.009438471
27	0xbb82b19b	-0.0039884574
28	0x3d8487b9	0.064711995
29	0x3c84fee6	0.016234826
30	0xbcf8f6c9	-0.030391114
31	0xbcc4b727	-0.024013115
32	0xbd6c9c1f	-0.057766076
33	0x3d2b7e5f	0.041868564
34	0x3d13a922	0.03604997
35	0x3d0934ac	0.033497497
36	0x3d1cee24	0.038313046
37	0x3d8547fc	0.065078706
38	0xbd4599e1	-0.048242453
39	0x3cdaa79d	0.026691252
40	0x3d2afd82	0.04174567
41	0xbc82fd46	-0.01598991
42	0xbd26a2c5	-0.040682573
43	0x3d56d332	0.052447505
44	0xbd3f4578	-0.04669711
45	0x3d973d48	0.07384735
46	0xbd164d37	-0.03669473
47	0x3bb0e19c	0.0053979885
48	0xbd19795f	-0.037469264
49	0x3d99eb92	0.075156346
50	0xbd606ea4	-0.054793015
51	0x3d85a58b	0.065257154
52	0x3d7575ec	0.059926912
53	0x3cddaf0d	0.02706101
54	0x3d076160	0.03305185
55	0x3d73d0a7	0.05952516
56	0x3d0f97e8	0.03505698
57	0xbcf1d417	-0.029520078
58	0x3cff76ff	0.031184671
59	0xbc58e764	-0.013238762
60	0x3d0e063f	0.034673925
61	0xbc1d3703	-0.009595635
62	0xba8c7d7d	-0.0010718551
63	0xbcd95682	-0.026530508
64	0xb98a7d5b	-0.00026414808
65	0xbd8097b4	-0.06278935
66	0x3d5b2efa	0.053511597
67	0x3c5d9bc7	0.01352591
68	0xbd86e304	-0.065862685
69	0x3d5b6a0d	0.053567935
70	0x3d2d680f	0.042335566
71	0xbb8c9818	-0.004290592
72	0xbc468b6a	-0.0121182
73	0xbd61fd58	-0.055173248
74	0xbafe19b4	-0.0019386322
75	0x3d7d670f	0.061865862
76	0xbc85df5b	-0.016341856
77	0xbd005236	-0.031328402
78	0xbd0614fd	-0.03273486
79	0xbd7a12e1	-0.06105316
80	0xbd359d35	-0.044339377
81	0x3d383c65	0.04497947
82	0xbd60e74f	-0.054908093
83	0xbd549ba5	-0.051906247
84	0x3cc8c73f	0.02450907
85	0xbcfdd00f	-0.030983
86	0x3c7bab8b	0.015360723
87	0x3d773212	0.060350485
88	0xbbc060d9	-0.00587092
89	0x3bc8b7bb	0.006125418
90	0xb9848288	-0.00025274255
91	0xbda4a1f5	-0.08038703
92	0x3bfddb0b	0.007747059
93	0x3d230a4e	0.03980475
94	0x39d23c0e	0.00040099066
95	0xbd7e8a8f	-0.06214386
96	0xbd3537b6	-0.044242583
97	0xbd21dd8f	-0.039517935
98	0x3d79626d	0.06088488
99	0x3c3fad09	0.01169897
100	0x3b3937b9	0.0028261973
101	0x3ca3aa59	0.019978689
102	0x3d11cf24	0.035597935
103	0xbb95051c	-0.004547728
104	0xbb2c7b87	-0.0026318745
105	0x3cedada6	0.029013466
106	0xbb0905ea	-0.0020908066
107	0x3ca25f23	0.019820755
108	0x3cc682ef	0.024232356
109	0xbd373100	-0.044724464
110	0x3cda158b	0.0266216
111	0x3c7d9268	0.0154768005
112	0xbd312565	-0.043248553
113	0x3d0c19c8	0.034204274
114	0x3d6b5a10	0.057458937
115	0x3c87a226	0.01655681
116	0xbd308d3a	-0.043103434
117	0x3d89efe2	0.06735207
118	0x3c89760b	0.01677992
119	0x3d464630	0.04840678
120	0xbd18684b	-0.037208837
121	0xbd623ca2	-0.055233605
122	0x3caf6837	0.021411998
123	0xbd201205	-0.039079685
124	0x3ca3090e	0.019901779
125	0x3b602509	0.0034201762
126	0x3c80b728	0.015712336
127	0x3d97aae4	0.07405642
128	0xbd468328	-0.048464924
129	0x3ca87e01	0.020567896
130	0x3d4e38c4	0.050347105
131	0xbc122ee9	-0.008922317
132	0xbd244fea	-0.040115274
133	0x3d234a45	0.03986575
134	0xbd613359	-0.05498061
135	0xbcdb0fde	-0.026740965
136	0x3d7291ed	0.059221197
137	0xbd234136	-0.039857112
138	0x3ce2e6a6	0.027697872
139	0x3baec75f	0.0053338255
140	0xbd8923b5	-0.06696264
141	0xbd0ffcd6	-0.035153233
142	0x3d163484	0.036671177
143	0x3ce21696	0.02759866
144	0xbd273c05	-0.040828723
145	0xbb908914	-0.0044108722
146	0xbc8bedab	-0.017081102
147	0xbd532020	-0.05154431
148	0xbcab0f2d	-0.02088126
149	0x3d3d18b4	0.046166137
150	0xbc9efc87	-0.019407524
151	0xbd0d392f	-0.034478363
152	0x3d1e57c0	0.038657904
153	0x3c231757	0.009954295
154	0xbafe5af0	-0.0019405764
155	0x3d863ea2	0.06554915
156	0xbd5059c8	-0.050866872
157	0xbd239e8a	-0.039946117
158	0xbd388a9b	-0.04505406
159	0xbc2a9d0d	-0.01041342
160	0xbc4d62c6	-0.012535756
161	0x3d65e027	0.05612197
162	0x3d942e97	0.07235449
163	0x3c4c8260	0.012482256
164	0x3c35ec27	0.011103666
165	0xbd6a526b	-0.057207506
166	0xbcbc435d	-0.02298134
167	0xba9d90c8	-0.0012021298
168	0xbd11291a	-0.035439588
169	0xbc99b54f	-0.018763212
170	0xbd802984	-0.062579185
171	0xbd54e39d	-0.05197488
172	0xbd8f0a4c	-0.06984386
173	0xbccb1195	-0.024788657
174	0x3d4ac165	0.04950084
175	0xbd012daf	-0.031537708
176	0x3d7a13d7	0.061054077
177	0xbc426e30	-0.011867091
178	0x3b8f0fd0	0.0043658987
179	0xbd4c2f06	-0.049849533
180	0xbd623245	-0.055223722
181	0x3b794664	0.003803634
182	0xbd096c78	-0.03355071
183	0xbcc5e978	-0.024159178
184	0x3ca2c65b	0.019869974
185	0xbd77d99b	-0.06051026
186	0x3d39977f	0.045310494
187	0xbcd0b12d	-0.025475109
188	0xbcd3b3b5	-0.025842527
189	0xbcee2cae	-0.02907404
190	0xbd55fc3e	-0.05224251
191	0x3d8c17ef	0.068405025
192	0x3b95d9fc	0.004573105
193	0xbd4999ce	-0.049218945
194	0xbca26097	-0.019821448
195	0xbd8113a6	-0.06302576
196	0xbcfcdd8e	-0.030867364
197	0xbc644f7c	-0.013934966
198	0xbc9d06a5	-0.019168207
199	0xbd01f79f	-0.03173029
200	0xbd7faa1a	-0.06241808
201	0x3d5cd02c	0.053909466
202	0x3b6fc636	0.0036586649
203	0xbd807ee4	-0.062742025
204	0x3d91e7b3	0.07124271
205	0xbd190fc6	-0.03736856
206	0xbd0f76b7	-0.035025325
207	0xbd7f7524	-0.062367573
208	0x3d56e12a	0.052460827
209	0xbd4aed58	-0.049542755
210	0xbbbdcf4b	-0.0057925335
211	0xbc2b5c65	-0.01045904
212	0x3d4d177f	0.050071236
213	0x3d9a75c0	0.0754199
214	0xbd66459c	-0.05621873
215	0xbcbf431f	-0.023347436
216	0xbd999604	-0.07499316
217	0x3ceb4c73	0.028722977
218	0x3d6b642f	0.05746859
219	0xbd587efb	-0.052855473
220	0x3c2b7bfb	0.010466571
221	0xbcbbdae4	-0.022931524
222	0xbd7e11af	-0.062028583
223	0x3d25c8e5	0.04047479
224	0xbcdfc0d0	-0.02731362
225	0xbc274274	-0.010208715
226	0xbbc48c3c	-0.0059981626
227	0xbd743156	-0.059617363
228	0x3c44221b	0.011971022
229	0xbc50c014	-0.0127411075
230	0xbd1d720c	-0.03843884
231	0x3bc9f92c	0.006163737
232	0x3d43f2d3	0.047838997
233	0xbd09763f	-0.033560034
234	0xbbcc95cf	-0.0062434445
235	0x3cd45d3b	0.025923362
236	0x3d12c951	0.03583652
237	0xbd065789	-0.032798324
238	0x3d337dec	0.04382126
239	0xbbaaa5b3	-0.005207741
240	0x3c59e5aa	0.013299385
241	0x3c9e827d	0.019349331
242	0x3d5af77e	0.053458683
243	0x3b804946	0.003914985
244	0xbdbbd6fd	-0.09171865
245	0x3d81e787	0.063429885
246	0xbbf5f01c	-0.00750543
247	0xbd4bf1e3	-0.049791228
248	0x3d931b2c	0.07182917
249	0x3c5640d7	0.013076982
250	0x3d4e47e3	0.050361525
251	0x3d8aff08	0.067869246
252	0xbbb23567	-0.005438495
253	0xbcbd270c	-0.023089908
254	0x3d032f84	0.032027736
255	0x3cebeb59	0.028798746

bn1.running_var f4 [512]
0	0x3c7c6a25	0.015406166
1	0x3d00acbc	0.031414732
2	0x3c201466	0.009770488
3	0x3d256ea0	0.040388703
4	0x3be81756	0.00708286
5	0x3d682eab	0.05668513
6	0x3bd6a772	0.0065507228
7	0x3c650462	0.013978096
8	0x3d36faa7	0.044672634
9	0x3c0e9f33	0.008704948
10	0x3d15fc23	0.03661741
11	0x3bd43a36	0.006476666
12	0x3cf626e3	0.03004784
13	0x3cc94831	0.024570556
14	0x3d40a63c	0.047033533
15	0x3ce68f6a	0.028144557
16	0x3ca52079	0.020157086
17	0x3d158a4d	0.036508847
18	0x3d00b5e4	0.031423464
19	0x3cbc16a7	0.02296002
20	0x3cfd33e5	0.030908534
21	0x3c20ea6e	0.009821517
22	0x3c81cb2e	0.015843954
23	0x3cc7ed10	0.024405032
24	0x3d03e8df	0.032204505
25	0x3cf6d010	0.030128509
26	0x3d20732d	0.03917234
27	0x3d09a0dd	0.033600677
28	0x3ce803a9	0.028322058
29	0x3c56477e	0.0130785685
30	0x3c0651c9	0.00819821
31	0x3cfb011c	0.030640177
32	0x3d81ff0e	0.06347476
33	0x3cd44257	0.02591054
34	0x3d4d0508	0.050053626
35	0x3d1efe50	0.03881675
36	0x3ca7d70e	0.020488288
37	0x3ce7ab66	0.028279971
38	0x3c04d650	0.008107737
39	0x3d06f547	0.03294876
40	0x3c126f40	0.008937657
41	0x3d4c5833	0.0498888
42	0x3cf21478	0.029550776
43	0x3d06aa64	0.03287734
44	0x3bd073ae	0.0063614463
45	0x3bc1d980	0.0059158206
46	0x3c92b60f	0.017909078
47	0x3d0a587b	0.033775788
48	0x3cd66432	0.026170824
49	0x3c73bb13	0.014876145
50	0x3d77dcd1	0.06051332
51	0x3c054ab4	0.008135486
52	0x3d274a99	0.040842626
53	0x3d3215a9	0.043477688
54	0x3d5bf93f	0.053704496
55	0x3da0c428	0.07849914
56	0x3d263299	0.040575597
57	0x3db9582d	0.09050021
58	0x3d8df793	0.06931987
59	0x3d0e8af2	0.034800477
60	0x3c817331	0.015801998
61	0x3da41435	0.08011667
62	0x3c8f8664	0.017520137
63	0x3d07495c	0.033028945
64	0x3d5d1ebd	0.053984392
65	0x3d25a400	0.040439606
66	0x3bd927b6	0.0066270484
67	0x3d0489d7	0.032358017
68	0x3cfbfa6d	0.03075906
69	0x3d29db33	0.04146881
70	0x3ca818e1	0.020519676
71	0x3c1c9095	0.009555955
72	0x3bce612c	0.006298205
73	0x3cc2a1a7	0.023758722
74	0x3c30b3da	0.010785067
75	0x3cb96a51	0.022633703
76	0x3caadd0f	0.020857362
77	0x3d806056	0.062683746
78	0x3c65605d	0.014000026
79	0x3cb0f9fc	0.021603577
80	0x3d0bc316	0.034121595
81	0x3bb3ee89	0.005491082
82	0x3d0f7c53	0.035030674
83	0x3d589125	0.052872796
84	0x3d3ebba1	0.046565656
85	0x3d122be4	0.03568639
86	0x3cc0a6ad	0.023516977
87	0x3c038a4c	0.008028578
88	0x3c61c171	0.01377903
89	0x3d02b8a0	0.031914353
90	0x3caa537e	0.020791765
91	0x3d46045a	0.048343994
92	0x3cc36dc0	0.023856044
93	0x3ce6c54f	0.028170256
94	0x3d1d9255	0.03846963
95	0x3c9686d2	0.018374834
96	0x3c986892	0.01860455
97	0x3c06ec0d	0.00823499
98	0x3d45dc91	0.04830605
99	0x3d9c6c98	0.076379
100	0x3cbd29b5	0.023091177
101	0x3c2a02a1	0.010376603
102	0x3c62035a	0.013794744
103	0x3c278bf0	0.010226235
104	0x3cd15180	0.025551558
105	0x3c65fb36	0.014036944
106	0x3bf25868	0.0073957928
107	0x3d048582	0.032353885
108	0x3ca28fde	0.019843992
109	0x3d1221a6	0.03567662
110	0x3ca7e24b	0.020493647
111	0x3c8a8de8	0.01691337
112	0x3c0e23a9	0.008675494
113	0x3d28447c	0.041080937
114	0x3d059e1c	0.032621488
115	0x3cc0e6f2	0.023547623
116	0x3cbc5dc2	0.022993926
117	0x3c01fffa	0.007934565
118	0x3c11d600	0.008901119
119	0x3ca7e2a9	0.020493822
120	0x3cb3825e	0.02191275
121	0x3c27c477	0.010239712
122	0x3cf827b7	0.030292375
123	0x3b98a4d5	0.0046583214
124	0x3d4dd65e	0.050253265
125	0x3d36ef95	0.044662077
126	0x3c85a8ef	0.016315905
127	0x3c8bccf1	0.017065497
128	0x3ba185ec	0.004929295
129	0x3cc7f298	0.02440767
130	0x3cc15de6	0.023604345
131	0x3bf88b4d	0.0075849653
132	0x3c0b948a	0.008519301
133	0x3ccd754c	0.025080346
134	0x3d9a8067	0.07544022
135	0x3cc7963f	0.024363635
136	0x3c6a8314	0.014313478
137	0x3c32708f	0.010891094
138	0x3d78aca4	0.060711518
139	0x3bcfee28	0.006345529
140	0x3ca0923d	0.019600982
141	0x3bda62a1	0.0066645895
142	0x3c53ce04	0.012927536
143	0x3d926ff0	0.07150257
144	0x3c9cd16d	0.01914283
145	0x3d09f9e8	0.033685595
146	0x3d59e3d6	0.053195797
147	0x3c69367d	0.014234182
148	0x3d20a330	0.039218128
149	0x3cab4d28	0.020910814
150	0x3d2fd0fb	0.04292391
151	0x3ce04725	0.027377674
152	0x3d1f68fe	0.038918488
153	0x3cfed244	0.031106122
154	0x3d0a99fd	0.03383826
155	0x3b904809	0.0044031185
156	0x3dcdcd8d	0.10048971
157	0x3d025bc2	0.03182579
158	0x3d7896d5	0.06069072
159	0x3cd10ccf	0.025518803
160	0x3d08af51	0.03337032
161	0x3d181b14	0.0371352
162	0x3bf74844	0.0075464565
163	0x3d0b2620	0.033971906
164	0x3cafc945	0.021458277
165	0x3cd56aff	0.026051996
166	0x3d15fad9	0.03661618
167	0x3ca2f8b6	0.019893985
168	0x3bf99740	0.0076169074
169	0x3d670b62	0.05640734
170	0x3c897ff2	0.016784642
171	0x3c6aea93	0.014338153
172	0x3d1bb5c0	0.038015127
173	0x3d6edfc9	0.058318887
174	0x3c8ca15b	0.017166784
175	0x3cf30efa	0.029670227
176	0x3cb710f5	0.022346953
177	0x3d2620a0	0.040558457
178	0x3c9e8161	0.019348802
179	0x3d08d8da	0.03340993
180	0x3cef404a	0.02920546
181	0x3d0cc3de	0.03436648
182	0x3c6a48ac	0.014299553
183	0x3cf11a09	0.02943136
184	0x3ce4d789	0.027934806
185	0x3d36e277	0.044649567
186	0x3d26ea51	0.040750805
187	0x3d1f024b	0.038820546
188	0x3b875118	0.00412954
189	0x3d30b3d7	0.04314026
190	0x3d435c83	0.047695648
191	0x3ca822e4	0.02052445
192	0x3c18bbe5	0.009322141
193	0x3ce3f9e8	0.027829126
194	0x3d3b4f18	0.045729727
195	0x3cf70c5b	0.030157259
196	0x3d8048b7	0.06263869
197	0x3cb6924d	0.022286559
198	0x3d25240a	0.040317573
199	0x3d45bd74	0.04827638
200	0x3d37ca96	0.044870935
201	0x3d1d6542	0.038426645
202	0x3d256f97	0.040389623
203	0x3c174498	0.009232663
204	0x3d699f14	0.057036474
205	0x3c25bc06	0.010115629
206	0x3ca7d3b3	0.020486688
207	0x3cdf865d	0.02728575
208	0x3d1db961	0.03850687
209	0x3c5dec23	0.013545069
210	0x3d01f44e	0.031727128
211	0x3b93b658	0.004507821
212	0x3ce55f35	0.0279995
213	0x3d089f89	0.03335527
214	0x3bbe8871	0.005814605
215	0x3c87d084	0.01657892
216	0x3d57a11d	0.052643884
217	0x3d3bc822	0.04584516
218	0x3bd1d62d	0.0064037056
219	0x3c9bd884	0.019024141
220	0x3cc19b0c	0.023633502
221	0x3d983ec6	0.07433848
222	0x3d4a0fe3	0.049331557
223	0x3d3af8f0	0.04564756
224	0x3c177ccc	0.0092460625
225	0x3d27af25	0.040938515
226	0x3d0d2215	0.03445633
227	0x3d12bf6d	0.03582709
228	0x3d2a5a43	0.041589987
229	0x3d2844d3	0.04108126
230	0x3c2a8712	0.01040818
231	0x3baeb214	0.005331287
232	0x3c733070	0.014843091
233	0x3cea9b50	0.028638512
234	0x3c32670f	0.010888829
235	0x3b9ddb83	0.0048174276
236	0x3c5cef1e	0.013484744
237	0x3c9d14ac	0.019174896
238	0x3d383f4e	0.044982247
239	0x3cfb8b0a	0.030705947
240	0x3c7f92d0	0.015598968
241	0x3cd700bf	0.026245473
242	0x3d6872b4	0.056750014
243	0x3c8e442a	0.017366488
244	0x3b895649	0.004191194
245	0x3d1b096b	0.03785078
246	0x3d18c2e6	0.037295245
247	0x3cece4a6	0.028917622
248	0x3d1bf76f	0.038077768
249	0x3bba2e5c	0.005681796
250	0x3c082cba	0.008311445
251	0x3cbeca81	0.02328992
252	0x3d191613	0.037374567
253	0x3b33836f	0.0027391573
254	0x3d4f0ec2	0.050551184
255	0x3d83a0d5	0.06427161

fc2.weight f4 [256, 512]
0	0x3d89f5fa	0.067363694
1	0xbc412865	-0.011789416
2	0x3d21f94d	0.039544392
3	0xbca137cf	-0.019679932
4	0xbe5bbded	-0.2145917
5	0x3cf60160	0.030029953
6	0x3c4d82b0	0.012543365
7	0x3d8b3b72	0.06798448
8	0xbdb12a21	-0.086506136
9	0x3d8a59ad	0.067553855
10	0x3cdaaa64	0.026692577
11	0xbde3f2e4	-0.11130312
12	0x3c8646d9	0.016391205
13	0xbdb18e44	-0.08669713
14	0x3dd716a1	0.10502363
15	0xbdb4c4bb	-0.08826586
16	0xbd211ecc	-0.03933601
17	0x3c1a3d7c	0.009414073
18	0xbde5d09f	-0.11221432
19	0x3c78818c	0.015167605
20	0xbe14bb89	-0.14524664
21	0xbcf7779d	-0.030208403
22	0xbdb0d505	-0.0863438
23	0x3d148311	0.036257807
24	0xbdd6a317	-0.10480326
25	0xbdb6a976	-0.08919041
26	0xbdb47162	-0.088106886
27	0xbd8df1f3	-0.06930914
28	0xbcea4b48	-0.02860035
29	0x3ca6dd71	0.020369263
30	0xbe83d959	-0.2575176
31	0x3c1bd0f7	0.00951027
32	0xbd948d3a	-0.07253499
33	0x3dbde883	0.09272864
34	0xbddbbdef	-0.10729586
35	0x3d84b111	0.06479085
36	0xbe46e510	-0.19423318
37	0x3e3f5791	0.18685748
38	0xbdd1becf	-0.10241472
39	0xbe1af558	-0.15132654
40	0xbc2b9879	-0.010473364
41	0x3e02763d	0.12740417
42	0x3cb748b9	0.022373544
43	0x3dfb3112	0.12265219
44	0xbe4a9bbf	-0.19785975
45	0xbdc9a4bd	-0.098458745
46	0x3e04b8a6	0.12961063
47	0xbd0fb6cf	-0.03508645
48	0x3e1c95d9	0.15291537
49	0x3d7837e9	0.060600195
50	0xbd5bbdc6	-0.05364778
51	0xbdfdb744	-0.12388471
52	0xbd919c6a	-0.07109912
53	0xbdb94f5e	-0.09048341
54	0xbd1e87c4	-0.038703695
55	0xb88e8e0b	-6.797545e-05
56	0xbbaf10ab	-0.005342563
57	0xbe72985a	-0.2369093
58	0xbd43dee9	-0.047820006
59	0x3d76f053	0.060287785
60	0xbdcc0dac	-0.09963545
61	0xbca1dcd7	-0.019758625
62	0xbdd5677d	-0.104201294
63	0x3ae67426	0.0017582222
64	0x3c82ffb9	0.015991079
65	0xbcfb1f05	-0.03065444
66	0x3deff1e3	0.11716058
67	0x3d81336a	0.063086346
68	0xbd50a737	-0.05094072
69	0x3e212df8	0.15740192
70	0xbbc99261	-0.006151483
71	0xbdd92a8d	-0.10603819
72	0xbd37de83	-0.044889938
73	0x3d65c862	0.056099303
74	0xbda845e2	-0.08216454
75	0xbc82b0eb	-0.015953502
76	0x3d3ac031	0.045593444
77	0xbe2eb91a	-0.17062798
78	0x3e2c5fc5	0.16833408
79	0x3de266ec	0.11054787
80	0xbd8f0471	-0.06983269
81	0xbdae2c00	-0.08504486
82	0xbddd91d5	-0.10818831
83	0xbe1fa95b	-0.15591948
84	0xbd232083	-0.039825927
85	0xbbc7285b	-0.006077809
86	0xbd9bc064	-0.07605055
87	0xbe2177bb	-0.1576833
88	0x3ceb3fa3	0.028716868
89	0x3d961f35	0.07330171
90	0xbdd5df5a	-0.104429916
91	0x3dbbd9f0	0.09172428
92	0xbd9c4007	-0.076294
93	0xbcd70e47	-0.026251925
94	0xbe1ea449	-0.15492357
95	0x3d6c19c8	0.057641774
96	0xbdf93ccc	-0.12169799
97	0xbe28e609	-0.16494001
98	0xbe058dea	-0.13042417
99	0xbe0e986c	-0.13925332
100	0xba91a6f7	-0.0011112381
101	0xbe359956	-0.17734274
102	0xbd6fd0a6	-0.058548592
103	0xbda7b495	-0.0818874
104	0x3d38a1c0	0.04507613
105	0xbe218fad	-0.15777464
106	0xbd13cbe4	-0.036083117
107	0xbc537cea	-0.0129082
108	0xbb1fa4e1	-0.002435975
109	0x3cd834b1	0.026392313
110	0xbdc24d2e	-0.09487377
111	0xbdd70403	-0.10498812
112	0xbd33ec97	-0.0439268
113	0xbd123dc5	-0.03570344
114	0x3c8a7707	0.01690246
115	0x3db11c88	0.0864802
116	0x3cc44f95	0.023963729
117	0xbe39874c	-0.18118018
118	0xbda3f98d	-0.080065824
119	0x3d9166cc	0.07099685
120	0xbd30ef8d	-0.043197203
121	0x3e055ae0	0.13022947
122	0xbcc05283	-0.023476845
123	0xbde484c8	-0.111581385
124	0xbca4eb69	-0.020131784
125	0x3dba8d9f	0.09109043
126	0xbd60cee8	-0.05488482
127	0xbd3884f6	-0.045048676
128	0xbe1b09c1	-0.1514044
129	0x3d666a8d	0.05625396
130	0x3d2fe3aa	0.042941727
131	0xbe082996	-0.13297114
132	0xbde285d0	-0.11060679
133	0x3cc9c14e	0.024628308
134	0xbd36d347	-0.044635084
135	0xbd81629f	-0.063176386
136	0x3df83cc6	0.121209666
137	0xbe08f080	-0.13372993
138	0xbc75890f	-0.014986291
139	0xbd74b43b	-0.059742194
140	0xbdbdaac1	-0.09261084
141	0xbdffceda	-0.12490626
142	0xbdffe444	-0.1249471
143	0xbd77c91b	-0.060494523
144	0xbe251118	-0.16119802
145	0xbdba2c17	-0.09090441
146	0xbe3d8b93	-0.18510275
147	0xbe125ddb	-0.14293616
148	0xbe0c3be6	-0.13694724
149	0x3d0c5f4c	0.03427057
150	0xbd3b7d27	-0.04577365
151	0xbd943d5d	-0.072382666
152	0xbd6cdd3a	-0.057828166
153	0xbd31e4c7	-0.04343107
154	0xbcfa0dfd	-0.030524248
155	0xbeb1583e	-0.34637636
156	0x3adeed97	0.0017008063
157	0xbd5adbf7	-0.05343243
158	0x3db8be94	0.09020725
159	0xbd7e6cdb	-0.06211553
160	0xbe3d8efd	-0.18511577
161	0xbc1a8f7b	-0.0094336225
162	0xbe23ae32	-0.15984419
163	0xbd3b79ff	-0.04577064
164	0xbcfd9b2e	-0.030957785
165	0xbe0cf6e0	-0.1376605
166	0x3cb8cae1	0.022557678
167	0xbe44b024	-0.19207817
168	0x3e0ee2d8	0.13953722
169	0xbe4cbff1	-0.19995095
170	0xbdb1ec6e	-0.086876735
171	0xbd8c277f	-0.06843471
172	0xb83e06d6	-4.5305896e-05
173	0xbe10cd9a	-0.14140931
174	0x3e04a353	0.12952928
175	0xbe117d73	-0.14208011
176	0x3d97ff66	0.0742176
177	0xbce90648	-0.028445378
178	0x3d64eb62	0.05588854
179	0xbb57ff6b	-0.0032958637
180	0x3d133121	0.035935525
181	0xbc613696	-0.013745924
182	0x3e480cc3	0.19536118
183	0xbe11c952	-0.14236954
184	0xbc83089e	-0.01599532
185	0xbc30a3e0	-0.010781258
186	0xbd257310	-0.040392935
187	0xbe781539	-0.24226846
188	0x3e3bfb57	0.18357597
189	0x3d983b4b	0.07433184
190	0x3bc0d81d	0.0058851377
191	0x3d425273	0.04744191
192	0xbe00090b	-0.1250345
193	0xbdadfe47	-0.08495765
194	0x3db01a6d	0.0859879
195	0x3dd4ec88	0.10396677
196	0x3d27f1f0	0.041002214
197	0x3c0b102f	0.008487745
198	0xbbc78735	-0.006089116
199	0x3c859b1c	0.016309313
200	0xbda6552f	-0.08121716
201	0xbd1fa4d7	-0.038975563
202	0x3cae9724	0.021312304
203	0x3bd1c045	0.006401094
204	0x3d98c5f3	0.07459631
205	0x3e115e57	0.14196144
206	0x3d8fbcee	0.07018457
207	0x3d019e35	0.03164502
208	0xbd997aad	-0.07494102
209	0xbe130d56	-0.14360556
210	0xbdfac415	-0.12244431
211	0xbe21cdc1	-0.15801145
212	0x3d0cc808	0.034370452
213	0xbd07c84f	-0.033150014
214	0xbe624107	-0.22095118
215	0xbd865956	-0.06560008
216	0xbcfada8f	-0.030621795
217	0xbcc593ad	-0.024118269
218	0xbcfeb480	-0.031091928
219	0xbded0a07	-0.11574178
220	0x3decad26	0.11556463
221	0xbdf6e639	-0.1205563
222	0xbbe070de	-0.0068493923
223	0xbc8691df	-0.016426979
224	0xbe329728	-0.17440474
225	0xbdb79356	-0.08963649
226	0xbc9c9c3e	-0.01911747
227	0xbcc7d867	-0.02439518
228	0xbcaff03a	-0.021476854
229	0xbd797e09	-0.060911212
230	0xbdb367d0	-0.08760035
231	0x3da72041	0.08160449
232	0xbdcd0c30	-0.1001209
233	0x3de85122	0.113436
234	0xbd20160b	-0.03908352
235	0xbbbd4ef6	-0.005777235
236	0xbdf4d6b6	-0.11955015
237	0xbcd66ed2	-0.02617589
238	0xbbb394e9	-0.005480398
239	0x3c1f0697	0.009706161
240	0xbcd72196	-0.026261132
241	0x3c430182	0.011902215
242	0xbdc36255	-0.0954024
243	0x3d8504bc	0.06495044
244	0x3e201fe1	0.15637161
245	0xbe4e1d9d	-0.20128484
246	0x3cbc49a6	0.022984337
247	0xbd32bc9e	-0.04363691
248	0xbe0c12e0	-0.13679075
249	0xbe423b25	-0.18967874
250	0x3da80769	0.082045384
251	0xbda8a849	-0.08235223
252	0x3cedb2c2	0.029015902
253	0xbea3d370	-0.31997252
254	0x3d941645	0.0723081
255	0xbe2d61aa	-0.16931787
